mnist_cnn_model.tflite (tflite, 904376 bytes, 8 tensors)

arith.constant f4 [64]
00000000: 17f1 61bd 3d57 e83b 445c 583a 280f 40be
00000010: 7f82 42bd 3ee0 b73d e439 39bd caa5 683d
00000020: d123 0cbe 179e c9bd f7b3 7dbe 9ef4 4fbe
00000030: 2410 b6bd 107e 80bc 56f4 20bd 7523 f63c
00000040: 5b5d 8dbd 7a69 3dbe a65d a3bc be1d 5abd
00000050: 0240 f7bd fc3e 32bb 1ffe 61bd c2d6 523d
00000060: 60d1 0f3d 0244 51be f955 c8bd cee4 e7bd
00000070: aa5d 3bbe 1413 16be 3ab9 cbbd aaad d0bc
00000080: 3f91 08be c084 963d 1f5a 863d e2ba 0fbe
00000090: 7538 15be 4a83 8b3d f86c 59bd 9a26 35bd
000000a0: 7b14 20bc 5268 b5bc b1b1 503d d4a2 a7bd
000000b0: ce1f 42bd 0095 ccbc 83d8 25bc 2984 a3bc
000000c0: ccf2 20be c32c c1bd a201 a9bd 3af1 b33d
000000d0: c2d1 84bd 0a20 88bd 8afe 33bd 918a f1bd
000000e0: 3c9b 74be 651e 4f3d b0c0 c1bd 7bd3 6dbe
000000f0: 4e13 42be 8552 753c ca98 7dbc c1a2 5abc
-0.05516156 0.0070904777 0.0008253495 -0.18755782 -0.047487732 0.08978318 -0.045221224 0.056798734
-0.13685538 -0.09844606 -0.24775682 -0.20308158 -0.08889797 -0.015685111 -0.039295517 0.030046204
-0.06902572 -0.18497267 -0.019942116 -0.05325102 -0.120727554 -0.0027198186 -0.05517399 0.05147434
0.035111785 -0.20436099 -0.09782023 -0.11322938 -0.18297449 -0.14655715 -0.099474385 -0.025473434
-0.13336657 0.07349539 0.06560158 -0.14036134 -0.14572318 0.06812151 -0.053082436 -0.044226266
-0.009770508 -0.02214447 0.05095071 -0.08185354 -0.047393613 -0.024973392 -0.010122421 -0.01996048
-0.1571762 -0.09432366 -0.082522646 0.08786245 -0.06485321 -0.06646736 -0.04394392 -0.117940076
-0.23887342 0.050566096 -0.0946058 -0.23225205 -0.18952677 0.0149732875 -0.015478322 -0.013344468

arith.constant1 f4 [32]
00000000: aa09 0c3d aff5 febd a27a f0bd a02b 0cbe
00000010: 7c60 693c 32a0 52bc 3874 6dbe 9c9b 17bc
00000020: 149c 36be 25f8 a33c 7124 15bc f736 16bc
00000030: 0000 0000 3394 0ebd d322 a4bd 1d1b 89bd
00000040: 61d2 1fbc 116b dfbd bcde 2dbc 7548 fdbd
00000050: c533 66be 6710 febc 815a 15be c44d b03d
00000060: 89e2 1abb 8d2d 2ebc fed0 abbb ec69 8dbc
00000070: 3226 a6bb f084 06bc 8588 11be ed76 653b
0.034188904 -0.12449204 -0.1174214 -0.13688517 0.014244195 -0.012855576 -0.23188865 -0.009253409
-0.17832977 0.020015785 -0.009102927 -0.009168378 0.0 -0.034809303 -0.08014455 -0.066946246
-0.009754748 -0.10909093 -0.010612186 -0.12367336 -0.22480686 -0.03101368 -0.14585306 0.086085826
-0.002363356 -0.010630977 -0.0052434197 -0.017262422 -0.005070471 -0.008210406 -0.14212234 0.0035013512

arith.constant2 f4 [64, 3, 3, 32]
00000000: 1565 49bd 1c45 c63d 2c4d a33c 2e62 053e
00000010: ee5c 97bd a1d9 e43c 977d d53c 5278 17be
00000020: 7bd8 2d3e 343e f8bc 09d6 093d 405e ee3c
00000030: bb81 8abd 6a9e a13c d307 d03c 5c2f 40be
00000040: 2d50 113d 748f 10bd 78ad 6abe 8b5c a43d
00000050: 9497 353e abb7 4abe 0c50 af3d 8acb c9bd
00000060: 9526 9c3c 50d3 0b3e 5c56 15be 227b a3bb
00000070: f71d f3bd 6cda d4be 1587 e53d 8c6a 0d3e
00000080: 3236 9dbd 61a8 913d 6805 433d 0b7f 9c3d
00000090: 19d6 33be 77de 4bbe 5255 003e b7af 0abe
000000a0: 85c3 7c3d 0418 dabc 1d49 ef3b c28d 3abd
000000b0: 5299 733d 36e0 89bc 757d 893d 0419 59bd
000000c0: 20aa 5fbd 6f98 07be 76e7 a3bd b36a 1e3d
000000d0: cd54 c23d e7e0 65be f52b 3d3e dbf2 b7bd
000000e0: 4eff 77bd efd8 f63b 4470 4fbd 02d0 c3bd
000000f0: 8578 593d e501 38be c806 e1bc aa54 b43d
00000100: 98ef 5dbd a6d6 ebbc 0fb3 da3d ec75 343d
00000110: 351b efbd ea42 013d c46b a03c a66c 09be
00000120: c481 8a3b 5ae1 00be 38c2 2dbd 26c8 f1bd
00000130: 600e 03bb 9ece 063e 4023 8a3b 5bd1 683d
00000140: 9f38 92bd 0754 7d3c 1bb3 5b3d bf50 86bb
00000150: 45bd 323e fa67 b23c 5cf1 883b c6a1 523d
00000160: c93a 4ebd 8795 693b 567c 34bc a87e 6ebd
00000170: 0683 2fbc 4006 f5bd ca52 3a3d 1125 c3bd
00000180: 8680 613e 32ce 54bd 0b8b 8cbe fd25 233e
00000190: b6af b9bd f101 49bc 7fa3 d83b df88 fbbd
000001a0: 5a01 0fbd bc17 293d ce3e 873d bcbd 86bd
000001b0: 5423 f23c 9960 e93d b3e4 133e e954 17be
000001c0: bf86 0c3e 40c9 8cbe d898 bcbe 7794 323d
000001d0: 4572 0f3e 0f58 f3be 02b0 1b3e cb4e aebc
000001e0: b45e 723d 9b32 42bd 6f61 8fbe d464 61bc
000001f0: 5695 883d f717 f6bd 301c c73d e405 0e3e
00000200: 2efc 553d 4035 7e3c 1b5c 983d 6d2e b13d
00000210: 9776 8dbd 4483 16ba 2a66 553d ece6 8cbe
00000220: 4897 293d 3238 1fbd 1189 b0bc d8db aebc
00000230: 91c1 9d3d bf68 26bc 87ab d53d 196a 77be
00000240: 9fee e7bc 3fb1 21be abd7 453d 4ddb 5f3c
00000250: 8036 193e dc64 68be 8775 3c3c 799f bd3d
00000260: bb5a 99bd 3596 6d3d 1638 f8bd 021e 87bd
00000270: ee5f 45bd 1974 bb3d b54d 75bd 3222 873e
00000280: 0332 8b3d 8760 77bb 35d4 1abd 80cc b9bc
00000290: 8df8 f3bd 4c72 4ebd c204 5bbd 5c25 56bb
000002a0: eb53 ebbb 36ac 27bc 2507 1a3c 0604 48bd
000002b0: 54be aa3c 466e 103d 7180 46bd 53f8 edbc
000002c0: c5c2 403d 14ba 56bc 9752 32be 4694 69bd
000002d0: c526 f7ba ae9d 9dbd 4184 cbbc 2c4f 19bc
000002e0: fdaf 1c3d f14d faba 54f3 553c eaba 2cbd
000002f0: ab4d 993d 1099 423e b007 153d 9d50 f2bc
00000300: 45bf 923d d809 8fbe 76ba d5bc ef0b 1b3b
00000310: a5f4 52be 03de e33b 63a9 a9be 1ff6 a7be
00000320: 43e8 4abe 6064 6b3d 6afd 87bc 0025 58be
00000330: 86bc 003d 0acc 363b e579 a4bd d842 66be
00000340: 21a7 4b3d 8d14 7dbe a03c 2abe 1276 7cbe
00000350: 6cd9 d5bd 2b4c 81be be09 3ebd c90d df3d
00000360: 1ee9 4abc 11f5 97be 06dd 7bbe e0e7 3b3d
00000370: c09f 4b3c b05b ab3e 147e 47be fe48 9d3c
00000380: 8420 be3d b7e8 a6bd d08a 6ebe c951 ae3c
00000390: cc23 18be df43 7a3d 76d6 2dbe d394 8cbe
000003a0: 17ab 06be 529a 493d ac52 89bd a1a0 c5bd
000003b0: 0b5b 9fbd c0d4 d83d 6941 87bd 0e6c 88bd
000003c0: 172a ce3d f309 81be b817 38be dd7c aebd
000003d0: 4fef 95bd da18 debe d56f b13d 644d d03d
000003e0: fd92 1c3e b932 f9bd 534a 87be 7f91 94bd
000003f0: 2b5a f3bb b698 4c3e c26f 26be 8c28 083d
-0.049168665 0.0968115 0.01993426 0.13025734 -0.07390772 0.027935805 0.026060862 -0.14791992
0.16977112 -0.030303098 0.033651385 0.029097676 -0.067630254 0.019728858 0.025394356 -0.18768066
0.035476852 -0.035293058 -0.22917736 0.08025464 0.17733604 -0.19796626 0.085601896 -0.09853275
0.019061366 0.13654828 -0.14583725 -0.004989044 -0.1187095 -0.41572893 0.112074055 0.13810176
-0.076763526 0.07112194 0.047612578 0.07641419 -0.1756214 -0.19909082 0.12532547 -0.13543592
0.0617099 -0.02662278 0.007302417 -0.045545347 0.05947239 -0.016830545 0.06713382 -0.053002372
-0.054605603 -0.13241743 -0.08003132 0.038675975 0.09488831 -0.22449075 0.184738 -0.08981868
-0.060546212 0.0075331847 -0.050644174 -0.09561159 0.053093452 -0.17969473 -0.027469054 0.08805211
-0.054183573 -0.028788876 0.10678684 0.04405777 -0.11675111 0.031557955 0.019582637 -0.13420352
0.004226895 -0.12585965 -0.04242155 -0.118057534 -0.0019997582 0.13164756 0.004215628 0.056840282
-0.07139706 0.015461928 0.053637605 -0.004098981 0.17455013 0.021778096 0.004179163 0.05142381
-0.05034903 0.0035642104 -0.011015972 -0.058226258 -0.010712391 -0.11964083 0.04548911 -0.09528554
0.22021684 -0.051954456 -0.2744983 0.1593246 -0.09066717 -0.012268529 0.006611287 -0.122819655
-0.0349134 0.0412824 0.06603776 -0.06579158 0.029557861 0.11395378 0.1444271 -0.14778484
0.13723277 -0.27497292 -0.3683536 0.04359862 0.14008434 -0.4752812 0.1520386 -0.021277806
0.059172347 -0.047411542 -0.28004023 -0.013756949 0.066691086 -0.1201629 0.09722173 0.13869435
0.05224245 0.0155156255 0.07439443 0.08651433 -0.06907385 -0.0005741606 0.052099384 -0.2751993
0.04140404 -0.03887195 -0.021549733 -0.021345064 0.077029355 -0.010156809 0.10433107 -0.24161567
-0.028312026 -0.1579027 0.04830138 0.013663125 0.14962196 -0.22694725 0.01150263 0.092589326
-0.074880086 0.058004577 -0.121200725 -0.065975204 -0.04818719 0.09153003 -0.05988856 0.26393276
0.06796648 -0.0037746744 -0.037800033 -0.022680521 -0.11912642 -0.05040197 -0.053471334 -0.0032676077
-0.0071816347 -0.010233929 0.009401117 -0.048831962 0.020842709 0.035261415 -0.048462335 -0.029049074
0.047060747 -0.013105888 -0.17414318 -0.05702617 -0.0018856159 -0.07696091 -0.024843337 -0.009357255
0.038253773 -0.0019096715 0.013058502 -0.042170443 0.07485517 0.19003701 0.036384284 -0.029579455
0.07165388 -0.27937198 -0.026089888 0.0023658236 -0.20601137 0.006953956 -0.33137044 -0.32804963
-0.19815163 0.057468772 -0.01660033 -0.21107864 0.03142979 0.0027892613 -0.08031062 -0.22486436
0.049719933 -0.24714871 -0.16624689 -0.24654415 -0.104418606 -0.25253424 -0.04639601 0.10891301
-0.012384681 -0.29679158 -0.24596033 0.04587543 0.012428224 0.3346839 -0.19481689 0.019199844
0.092835456 -0.081498556 -0.2329514 0.021279233 -0.14857405 0.061099883 -0.16976342 -0.27457294
-0.13151203 0.049219437 -0.067052215 -0.09649778 -0.07781037 0.10587454 -0.06604273 -0.06661235
0.10066622 -0.25202903 -0.17977798 -0.085199095 -0.07321035 -0.43378335 0.086639084 0.10171011
0.15290447 -0.12167878 -0.26423892 -0.07254314 -0.0074265203 0.1998013 -0.1625357 0.033241794

arith.constant3 f4 [32, 3, 3, 1]
00000000: b6a4 033c c068 563e 85d8 8f3e d62a c1be
00000010: ac60 4abc b1bf 013e b72e bcbe b422 cabe
00000020: fa62 b4be f12d 263e 6372 9d3d 80ea 2d3e
00000030: 09ea 533e 1eff ea3b 43dc debe 2c04 0d3e
00000040: 45a9 24be 50e3 e4bd 0814 803d ce51 8fbe
00000050: 5fa1 9fbe c4c5 833e 02a7 9a3c dd23 dabd
00000060: 5156 3b3e 03b7 dc3d 96bc 4f3e f677 133e
00000070: e94c 0e3e d259 5d3d 7177 6dbd 87be 513c
00000080: 73ea 4f3e a395 26be 52ca 41be 4f80 233e
00000090: 5c20 9f3e be71 3b3d d6f7 c7be 690a 853e
000000a0: 5a7a 52bd 4397 aabe abd0 fcbd 5c57 e5be
000000b0: 800b 1dbf 712c 3b3e e049 d93d 0100 7e3e
000000c0: 45a6 c13d 72eb 7f3d f3d4 acbd ba4d 92be
000000d0: 9f1b 5bbe 5b44 0dbe 89c2 483d 2c7d 053e
000000e0: 8326 5f3d 07df 8cbd e79f f93d a32e 06be
000000f0: c14a 473c 7c18 1b3e e6e1 db3d 58ec b4be
00000100: b152 42be bfc1 e7bc 7f5e 92be 4598 cd3d
00000110: e966 203e 96bb 78be 6848 473e 45e5 073e
00000120: dbb7 d43d 9226 d23d 10c9 14be 6703 64bd
00000130: 4222 be3d 2012 683d 7f72 ec3d 5e98 37bc
00000140: e0d7 2a3e 278a 383e bc76 053e 04cd 1d3e
00000150: 18c5 393b 4c1a 523e 8342 f2bd 3e8d ffbe
00000160: 7e78 86be a147 cebe 9434 88be 4894 e0bd
00000170: d41a 7c3e ec12 86be f05a 9a3d 1674 633e
00000180: c3b5 673b 7fe6 17be ebf9 b63d 4b0f b53e
00000190: 541c 29bd 1621 e7be 6803 153e 83b3 b93d
000001a0: 163f a8be 5829 483d 3aa6 4cbe a304 1bbf
000001b0: 5ec3 42bd a2b2 d9bd 84f1 1bbd f88e b9bc
000001c0: 0aab b5bd d2c9 00bd 80b1 dbbb ac20 cebc
000001d0: 604c 95bb 5c46 3e3e 12c4 443e 5cb5 213e
000001e0: 365b a9bd 2c9d 92bb d9e9 813e 2a17 81be
000001f0: a80b 73be 4d9a 63be a18c 8d3b d425 b53d
00000200: f995 203e 6cc4 b8bc b39e fdbd cf06 4e3e
00000210: ef29 21be 9108 80be d2f5 533e 1e56 9fbe
00000220: 3078 58bd aa1e 5f3c d218 1abd 5ddc a03e
00000230: ab9d 863e 6e76 033e 13fd efbb a2bb c5be
00000240: a361 a03b af77 713e 7ef2 723d 0066 1b3d
00000250: 138d 843a 1a9c 833e 5736 d2bd 4793 9fbe
00000260: 2896 6abe 2ce8 83be 391b 2fbd 9988 223d
00000270: 2f7f 9fbb ce19 203c a7eb bb3d 6651 413e
00000280: 8ec0 023e 28cf 863c 7c7a 693c dc31 bebd
00000290: 7f2d b6be 7c15 d03b c450 2bbe b81d a3bd
000002a0: 9efa 153e e91d 5b3e 73e9 a23e b99d b3bd
000002b0: e81d 8f3d 8019 5e3e be9a 743e b992 813e
000002c0: 5076 eabd 4d95 a23d 2684 dabd c757 c4be
000002d0: 95b7 3a3e 283b 0a3e 7670 95be 0c37 1f3d
000002e0: 4833 5a3e 520e abbd 0816 5abe 5396 353e
000002f0: 1da3 713e 76ab 4ebd fbe4 e0be 9eb9 15be
00000300: 3d94 08be 760e 863d 8ffb 1d3e 8d6d 1a3e
00000310: 7496 8e3e 4991 943c e1b1 093e e7da 493e
00000320: c9b4 c53d 04e8 0bbe 45f2 0d3d 6c1f 133e
00000330: 6905 61be eb66 5dbe b39b 233e 9bf9 83bc
00000340: d040 8e3e 3c09 3d3e 5d31 21be b8fc ec3d
00000350: ed65 5fbe 46d2 3dbf 4504 d7be 57b4 ffbe
00000360: 7ff7 973e 5b6d c33d c4c6 063e f2e4 fa3c
00000370: e2e7 e93d 932c a7be 77d2 d3be 5635 8ebe
00000380: 879d 7bbe 8ce2 2f3d 3624 26bd 90f6 003e
00000390: c50e 9ebc 9444 923d 770d 92bc 828b 5a3d
000003a0: 3656 6bbd f27b ca3d 6864 793c 6466 9abe
000003b0: 98d9 68be 8dfe 983d 1f33 fcbc f956 49bd
000003c0: 6bc9 f53d e3fb 583e 5bfc 3d3e c1b4 55be
000003d0: 018d 873d 77ae 383e c1ac 53be a302 8abd
000003e0: 16b4 e93d ba25 21be 737b ddba 64b6 7b3e
000003f0: 8add e8be 14e2 67bd 06c9 753e 79ff 76be
0.008034876 0.20938396 0.2809488 -0.37727994 -0.01235215 0.1267078 -0.3675439 -0.394796
-0.35231763 0.16228463 0.07687833 0.16983986 0.20694746 0.0071715256 -0.4352742 0.13771123
-0.16080196 -0.11176169 0.06253821 -0.279921 -0.31177804 0.2573682 0.018878464 -0.10651372
0.18294646 0.10777094 0.20286784 0.1440123 0.13896526 0.054040737 -0.057975236 0.012801773
0.20304279 -0.1626802 -0.18924835 0.15966915 0.31079376 0.04576277 -0.3905627 0.25984505
-0.051386215 -0.3331853 -0.12344488 -0.44793212 -0.6134567 0.18278672 0.10609794 0.24804689
0.094555415 0.062480398 -0.08439054 -0.28574926 -0.21397255 -0.13795607 0.04901365 0.1303603
0.054480087 -0.068784766 0.12188702 -0.13103728 0.012163819 0.15146059 0.10736446 -0.35336566
-0.18976857 -0.028290628 -0.2858772 0.10038809 0.15664257 -0.24290308 0.19461215 0.13271053
0.1038663 0.10261263 -0.14529824 -0.055667307 0.09283878 0.05665791 0.11545276 -0.011205761
0.16683912 0.18021451 0.13033575 0.15410239 0.0028346237 0.20517844 -0.11829092 -0.49912447
-0.26263803 -0.40289024 -0.26602614 -0.109657824 0.24619609 -0.2618631 0.07536876 0.22212252
0.003535614 -0.14834021 0.08934387 0.3536323 -0.04128678 -0.4514243 0.1455208 0.09067442
-0.3286063 0.048867553 -0.19985285 -0.6055395 -0.047549598 -0.10629775 -0.038072124 -0.02265118
-0.08870514 -0.03144247 -0.0067045093 -0.025162064 -0.0045562238 0.18581527 0.1921542 0.1579184
-0.0826935 -0.0044743028 0.25373724 -0.25212985 -0.23734915 -0.2222683 0.004319743 0.08845106
0.1568221 -0.022554599 -0.12383785 0.20119785 -0.15738653 -0.25006536 0.20699242 -0.3112039
-0.052848995 0.013618151 -0.037621327 0.31418124 0.26292166 0.12838146 -0.00732387 -0.38619715
0.0048944517 0.23580812 0.05931329 0.03793907 0.0010112844 0.25705034 -0.10264271 -0.3116705
-0.22908843 -0.2576307 -0.04275057 0.03968105 -0.0048674564 0.009771777 0.091758065 0.18878707
0.12768766 0.016456202 0.014250394 -0.09286854 -0.35581586 0.0063502174 -0.16730028 -0.07964653
0.14646384 0.21398129 0.31818733 -0.087703176 0.06988126 0.21689415 0.23887154 0.25307253
-0.114483476 0.07938633 -0.106697366 -0.3834822 0.18234093 0.13499129 -0.29187363 0.038870856
0.21308625 -0.08352341 -0.21297467 0.17733125 0.23597379 -0.050456487 -0.43924698 -0.14621589
-0.13337798 0.06545727 0.15427993 0.15080853 0.27849162 0.018135684 0.13446762 0.19712411
0.09653623 -0.13662726 0.034654874 0.14367455 -0.2197472 -0.21621291 0.15977363 -0.016110232
0.27783823 0.18460554 -0.15741487 0.1157164 -0.21816225 -0.74148977 -0.41995445 -0.49942276
0.29681012 0.09542342 0.1316176 0.030626748 0.11421181 -0.32651195 -0.4137151 -0.27775067
-0.2457181 0.04294066 -0.040561877 0.12594056 -0.019294152 0.071419865 -0.017828686 0.0533557
-0.057455264 0.09886922 0.015221693 -0.30156243 -0.22739255 0.07470427 -0.030786095 -0.04915521
0.12001308 0.21189837 0.18553297 -0.20869733 0.06618691 0.18035303 -0.20671369 -0.06738784
0.11411302 -0.15737048 -0.0016897753 0.24581295 -0.4548152 -0.05661209 0.24002466 -0.24120893

arith.constant4 f4 [10, 128]
00000000: b744 453e 414d 6bbe 1c3e 1c3e bd79 d6bd
00000010: 5bec 383e 461b 6e3e db17 2c3c 5b59 6b3e
00000020: b88a f5be 89c6 543e 9de3 6bbe 14a9 013e
00000030: fad7 863e 595d 663e 6d44 0b3e a5f1 653e
00000040: c8c2 66bd 3eca b9bd 7b57 b13d 743f 89be
00000050: c515 8cbe 25db 90be 6de7 cebd 2b14 7cbe
00000060: a2fa 0b3e 8fce 99be e11a 6d3e d4f4 cb3d
00000070: 610b 89be b374 6f3e aee7 59bd a516 91be
00000080: 2426 aabe dd35 163e c281 f3be 41a1 38be
00000090: 6079 efbd cb47 b0be 05a0 803e 7580 553d
000000a0: c811 debe c0b7 dabe 5c1c 34be 71c9 433e
000000b0: 2390 803c 44cc b3be 6186 a1be 5bd9 94bd
000000c0: 95fe 193e 0b43 f9bd 32b7 8fbe 080e 54be
000000d0: 7600 0c3e 64f7 0cbe 369e 04be 0d5f fdbd
000000e0: 9872 41bd 5eea 0cbe e6e6 84be e194 c0bd
000000f0: 397c 9cbd b0f2 583e 09c8 493e 63b0 333e
00000100: 8cb7 afbe 0899 07be 11b0 fcbd 528e d8bd
00000110: 0030 89be c364 e2be 62e6 05bd c0df 4f3e
00000120: 4c50 913d 9343 9c3d 4488 75be 82c4 3fbd
00000130: 8568 fb3d c87f 43be bf34 b5be a4c0 d6be
00000140: 60f4 0e3e 6478 c2be 97c5 343e 348d 383e
00000150: 5937 55be 7ab6 b8be 8389 c0be d4c9 983b
00000160: e8e2 2bbe a520 343e e741 66be fd57 103e
00000170: 28d2 85bd e19a 43be be80 353e 2f6e 29bd
00000180: 7dd5 ff3d dc79 fbbd 62d4 2dbe 5b64 283e
00000190: bb5a 00bf 2c8a 10be 9e36 643e 2b8a 683e
000001a0: 17be 323e 4c9a 393e 4542 91be 4f97 e63c
000001b0: 4b3e 5f3e 166c 3abe 67a7 45be 5924 f0be
000001c0: 515d 6ebe c314 ddbe 17dc 26be bb75 85be
000001d0: 7175 343e 2f15 873e 5330 e7bd 4b19 fe3d
000001e0: dc8f 32be 1bc2 65be e434 5d3e 1e11 b63d
000001f0: 4003 c23d 7940 e5be f56a 0e3d 46fb 863e
00000200: 3cd2 2b3e a15b 553e a3fd fc3d 47db c5be
00000210: c890 a53d 1757 18be 56ab ddbe fc0f 903e
00000220: b5e8 9c3d 025a 88be a675 2c3e da12 913c
00000230: 5911 843e 64c1 033e b102 acbe 94c3 60be
00000240: d4e1 76be 45a3 0bbf 651e e7bd 61fe 243d
00000250: ce77 92be c8c0 8a3d 09a0 c7be 4bc8 acbc
00000260: 2b91 e43d 11f0 1b3e 7df6 a0be dff2 debc
00000270: 9e90 593d e1dd 243e bc1d dabd 7106 9ebe
00000280: 5697 ff3c 1022 403e 89ca 403e c869 83ba
00000290: d5fe 95be b29b 203e a7f8 93be d416 19be
000002a0: 5886 363e 0640 183e 8458 303d 2faa 85be
000002b0: e2ea 95bd 84a1 9e3d cd9e f73d 4fe2 b3be
000002c0: 4a54 3c3e 2652 713c 3f46 733e 5ff4 383e
000002d0: f7a3 033e 9ed1 21bb 0153 203e 0596 0c3e
000002e0: 653c 34be 86e6 37be 847a f13d 09b2 513e
000002f0: 47df 433e 1b24 0c3e 3db3 153e c43e 96be
00000300: 4d9a 2b3e 5872 e4bd 8430 97be 8e85 8a3e
00000310: a160 f33e 2022 50be 8473 2cbe 3981 01bf
00000320: 7112 073e 1af2 cdbd 954d 703d 2fae 2e3e
00000330: e6cf 91be 637f 813e c14e ae3d 6451 073e
00000340: 01a5 43bd d3b8 b33d 20f6 dabe 7cfa 5dbe
00000350: 33b1 c13d 6146 313e d0d4 8ebd 96fb 8fbe
00000360: 83cb 653d 3c83 3c3e 848e 42be 2f0b babd
00000370: c0d8 953e 774a 44bd a5dd 9abd f508 edbc
00000380: b18d 79bd 8b4a 643e 0f8a 1fbe f456 2e3e
00000390: 52d3 b43e 38a0 6d3e af97 9dbd 3095 73bd
000003a0: 5890 0bbe 7b7d 9bbe 88d1 913d 5ab1 b43d
000003b0: d0d0 cdbe 6e98 afbd dcfd 5e3e bdb4 1bbe
000003c0: 1f5d 97be 558c b3be 0cd4 fd3d 9c39 043e
000003d0: 9a36 39bd 423c f43d 13bc da3d 158c fabe
000003e0: debb 39be 30c8 943d 3a86 913d 3fef c9be
000003f0: 62ec 44bd 7973 a2be 6585 14bf 0fb8 5a3e
0.19264494 -0.22978689 0.15258068 -0.104724385 0.18058912 0.23252591 0.010503734 0.22983305
-0.47957397 0.2077886 -0.23036046 0.12662154 0.26336652 0.22496547 0.13600321 0.22455461
-0.0563381 -0.09071778 0.08659264 -0.26806223 -0.2736036 -0.28292194 -0.10102735 -0.24617068
0.13669828 -0.30040404 0.23154785 0.09958807 -0.26766494 0.23384361 -0.053199463 -0.2833759
-0.33232224 0.14668985 -0.47559935 -0.18030263 -0.11693072 -0.34429774 0.25122085 0.05212446
-0.4337294 -0.42718315 -0.17588943 0.19119813 0.01569373 -0.3511678 -0.31547835 -0.0726802
0.15038522 -0.121709906 -0.28069454 -0.20708477 0.13672051 -0.13766247 -0.12950978 -0.12371645
-0.047228426 -0.13761279 -0.25957412 -0.094033964 -0.07640881 0.21186328 0.19705214 0.17547755
-0.34319723 -0.1324197 -0.123382695 -0.105740204 -0.26794434 -0.442175 -0.032690413 0.20300198
0.070953935 0.07630076 -0.23977762 -0.046818264 0.12275795 -0.19091713 -0.35391805 -0.41943848
0.13960409 -0.37982476 0.176535 0.18022615 -0.20821895 -0.3607672 -0.37604913 0.0046627317
-0.16785777 0.17590578 -0.22486077 0.14096065 -0.06534225 -0.1910205 0.17724892 -0.041364845
0.124918915 -0.12279102 -0.16975549 0.16444533 -0.50138444 -0.14115208 0.2228646 0.22708957
0.17455326 0.18125266 -0.28370872 0.028148321 0.21801107 -0.18205294 -0.1930214 -0.4690273
-0.23277785 -0.43179902 -0.16294895 -0.26066384 0.17622925 0.2638335 -0.11288514 0.12407168
-0.1743769 -0.22437327 0.21602207 0.088899836 0.09473276 -0.4477575 0.03476997 0.2636358
0.16779417 0.20835735 0.12353065 -0.38643858 0.080842555 -0.14876972 -0.4329478 0.28137195
0.07661573 -0.2663117 0.16841754 0.017709184 0.25794485 0.12866741 -0.33595803 -0.21949607
-0.24109584 -0.54546005 -0.11285094 0.040281657 -0.2860703 0.06775051 -0.38989285 -0.0210916
0.11160501 0.15228297 -0.31438056 -0.02721542 0.053116433 0.16100265 -0.10650203 -0.3086429
0.031200092 0.18762994 0.18827261 -0.0010026032 -0.29295984 0.15684393 -0.28900644 -0.14950114
0.17824686 0.14868173 0.043053165 -0.26106402 -0.07320191 0.077456504 0.12090836 -0.35133597
0.18391529 0.014729058 0.23757266 0.1806197 0.12855516 -0.0024691592 0.15656663 0.13729103
-0.17601164 -0.17959031 0.11790946 0.20478071 0.19128142 0.13685648 0.14619155 -0.2934476
0.1675808 -0.11154622 -0.29529202 0.2705502 0.4753466 -0.20325518 -0.1684094 -0.50587803
0.13190629 -0.10055943 0.058667738 0.17058633 -0.28478926 0.252925 0.08511115 0.13214642
-0.04776478 0.08775487 -0.42765903 -0.21677583 0.09457626 0.17312004 -0.069741845 -0.28121632
0.056102287 0.18409437 -0.18999678 -0.09084164 0.2926693 -0.047922578 -0.075618066 -0.028934935
-0.060926143 0.22294061 -0.15580009 0.17025357 0.35317475 0.2320565 -0.07694947 -0.05946845
-0.13629282 -0.30369172 0.07120043 0.088228896 -0.40198374 -0.085739955 0.21776527 -0.15205665
-0.29563233 -0.35068002 0.1239396 0.12912601 -0.045218088 0.11925556 0.106804036 -0.48935
-0.18138072 0.07264745 0.0710568 -0.39440343 -0.048076995 -0.31728724 -0.58016044 0.21359275

arith.constant5 f4 [128, 1600]
00000000: b164 50be 4ee1 c5bd 4dd6 00be b02d 20bc
00000010: c01d ab3c c898 213e b305 05be 3804 383d
00000020: fd4f 4ebd 5c91 bebc 68e2 1e3d 6963 f3bd
00000030: 7fcd b7bd b55d 933d e1fe 833d 6683 5a3d
00000040: c00d 45be 3594 973d a97b 713d f85c ddbd
00000050: a80d aabd ca59 c2bd 5da6 31bc 7784 b73d
00000060: af77 053e 10a4 40bd 0367 53be bb9c bebd
00000070: b6b9 ccbd e168 593c 4dde afbc 564a aabd
00000080: ff99 e7bd 452e d5bd 3384 8ebd fd1d 193d
00000090: 96c1 98be 584c 0dbc d251 5ebd a6bd 483d
000000a0: 4644 9abd 9f0d a6bd 0e64 98bb b486 81bd
000000b0: 527c 81bd a1a5 88bd 06df 92bd 30a5 403e
000000c0: 5130 a1bd 647c 23bc 4c88 84be ae59 fb3c
000000d0: 45ce 11be e441 5e3d ffbe 8dbd 79e3 7fbe
000000e0: 9ae9 1fbe 03d1 3f3d 8271 7cbe b9e8 14bc
000000f0: 2cc0 8c3c be54 383e 838e ba3d fef6 cf3d
00000100: a559 97be 1295 0e3e 61e0 1fbd b330 29bc
00000110: bc8b 5ebd e75b 373c 0b85 dcbc c8f9 853c
00000120: 9b50 04be 6798 933d 3944 ebbb 06a5 2bbe
00000130: bb20 8ebe e27e 0f3e 8502 443d a442 de3d
00000140: d84b 05be cbb4 07be b57b 9dbc b36f 37bd
00000150: a35b 8fbd 1a1d 90bd 5c85 5dbc c209 6f3d
00000160: 20b0 0c3e d8e4 8dbd afbc 4cbe ad8d a4be
00000170: a3f1 5ebc 624b 8b3d d2b7 2b3d d778 54be
00000180: 49e4 2fbd e503 9d3d 3ce4 1a3c 1cb2 863c
00000190: 2305 56be 64af 84bd 2b9e 40be 5fa3 733d
000001a0: 06ef 0abd 2863 bdbd cf9d 61bc 62a2 c83d
000001b0: 2a25 82bc 2dde 3cbd e3cf bebd 0f3e 613e
000001c0: 88f7 8cbd 7cb2 73be 59e6 febd e5b3 ef3d
000001d0: 7b44 f1bd 65a1 8fbb 4847 b2bd 3ac5 25be
000001e0: 66fd 503d c0c4 ef3d 50fc 97be fa54 a9bc
000001f0: cc3a bb3d 3c33 583d 5857 263e f90b 9c3c
00000200: a0d0 9cbd 1f47 e63d 6bf3 babb 9e6a 913d
00000210: 6e73 2a3e 019c 843d b90a ebbc a938 343e
00000220: 76b3 eebd 511b 0abe 7c96 e03d e543 f5bd
00000230: 1732 1dbe 34c2 263e 8861 94bd 3a6f a43d
00000240: 9ed1 ee3c 4d72 0ebe 087d 253d a6a4 23be
00000250: 0b4c ffbd 96ad 78bd a682 373d 2bda 873d
00000260: aab9 073d 22d2 65bd 3cf6 59be 1709 20be
00000270: 2917 ecbc 0b80 32bd c1dd 4cbd 94d3 94be
00000280: 3fa2 9abc 89da 063e 5509 473e 60cd 66bd
00000290: 5fee 4dbe 1069 43bc d61b 83bd 2adc b03e
000002a0: 60a3 66bd 011c 7e3d 12cf 60bb 6785 3bbd
000002b0: 488d e0bb f275 42bb 3f59 7e3d 0b2f 2a3e
000002c0: ef23 573e 1adf d7bd d858 85bd 7afc 093e
000002d0: 60af 95bd 6b1d a2bd d30d 503e cf28 84bd
000002e0: d699 d83d 6e41 1a3e caa8 8ebe a46c 86bd
000002f0: 2f74 9d3e dd3d b2bd 168b 9a3d 136d 08bd
00000300: 6748 1dbd cf8b 2d3e efbf 6e3d 39fa 8cbd
00000310: 5d71 2b3e d456 ec3d 4604 58bd ae66 073c
00000320: 4553 8fbd 341a 26be fe95 ec3d 97a8 d0bd
00000330: c3ff 8e3d c0af 99bd 3750 c0bd b678 b5bd
00000340: bc1b 9d3d 787b 6bbe d093 56bc 6079 43bd
00000350: d066 343e eef3 38bd ff83 40bd 89bd 02be
00000360: 874e 883d 02d0 64bd db9d 9f3d fec9 57be
00000370: cb61 29bc db23 ddbb c28d 53bc 947c 98be
00000380: b8ac cbbb a964 1f3e 680f d13d ff5b bb3c
00000390: 1943 a5bd dfa5 cabd 3f89 d23d d8fd ae3e
000003a0: 0228 2a3b cf1d 2b3d 35f1 9dbc 1374 4bbd
000003b0: 3b44 f6bc b80c ad3d d884 15bd 71f1 97bd
000003c0: c316 5a3e 028a 99bd b626 0fbe fd35 8c3d
000003d0: 7b60 b9bb cf7f 54bd b6ee 9e3e b12c eebb
000003e0: 4738 453e e471 5b3e 4d22 dabd 4666 51bc
000003f0: 6788 b83d 0e6b 0ebe 33a2 073e e392 15be
-0.2035091 -0.09662114 -0.1258175 -0.009776518 0.02088821 0.15780938 -0.12990455 0.0449259
-0.05036925 -0.023262672 0.038790137 -0.11884195 -0.08974742 0.071956076 0.06445099 0.053347968
-0.19243526 0.07401315 0.058955822 -0.10808748 -0.08303386 -0.09489782 -0.010842887 0.089608125
0.13033937 -0.047031462 -0.20644765 -0.09307238 -0.09996359 0.013269634 -0.021468306 -0.0831496
-0.11308669 -0.10409216 -0.06958809 0.037382115 -0.29835194 -0.008624159 -0.05427725 0.049008988
-0.075325534 -0.08108067 -0.0046505993 -0.06324521 -0.0632254 -0.06672216 -0.071714446 0.18813014
-0.07870544 -0.0099783875 -0.25885236 0.030682411 -0.14238842 0.054262057 -0.06921195 -0.24989118
-0.15616456 0.04683019 -0.24652675 -0.0090886885 0.017181478 0.18001077 0.09109213 0.10154532
-0.2956058 0.13924053 -0.039032344 -0.010326552 -0.05433248 0.011191345 -0.026918909 0.016354457
-0.12921374 0.07206803 -0.0071797636 -0.1676217 -0.27759346 0.14013246 0.047853965 0.108525544
-0.13017213 -0.13252561 -0.019224027 -0.04478426 -0.069999 -0.07036801 -0.013520565 0.058358915
0.13739061 -0.06928414 -0.19993852 -0.3213934 -0.013607415 0.068014875 0.04192335 -0.20749222
-0.04294232 0.076667584 0.009453829 0.016442351 -0.20900397 -0.064787656 -0.18810336 0.059481975
-0.033919357 -0.09247428 -0.013770535 0.09796597 -0.015886862 -0.04611032 -0.09316995 0.2199633
-0.0688315 -0.23798555 -0.12446279 0.11704234 -0.1178064 -0.0043832534 -0.08705002 -0.16188517
0.05102291 0.11707449 -0.29684687 -0.020670403 0.09142074 0.052783236 0.16244256 0.019048678
-0.076569796 0.11244034 -0.005705287 0.07100414 0.16645595 0.06475068 -0.028691636 0.17599739
-0.11655323 -0.13486983 0.109662026 -0.119758405 -0.15351139 0.1628502 -0.07245165 0.08029027
0.029152688 -0.1391079 0.040402442 -0.15980777 -0.12465676 -0.06071242 0.04480233 0.06633409
0.033136047 -0.0561086 -0.21285337 -0.15628468 -0.028819637 -0.043579143 -0.05001617 -0.2906767
-0.018876193 0.13169302 0.19437154 -0.056348205 -0.20110463 -0.011926904 -0.06401794 0.34542972
-0.05630815 0.062038425 -0.003430311 -0.04578152 -0.0068527795 -0.0029672352 0.06209683 0.16619508
0.21009801 -0.105406 -0.06511086 0.13475218 -0.07308841 -0.07915767 0.20317774 -0.06453096
0.10576217 0.15064022 -0.2786315 -0.0656369 0.30752704 -0.08703206 0.0754606 -0.033307146
-0.038399126 0.16947864 0.05828851 -0.06883664 0.16742463 0.11539999 -0.05273845 0.008264227
-0.06998304 -0.16220933 0.11552046 -0.10188406 0.069823764 -0.07504225 -0.093903 -0.088609144
0.076713055 -0.22996318 -0.013096765 -0.047723174 0.17617345 -0.045154504 -0.04700088 -0.12767614
0.06655603 -0.055862434 0.077937804 -0.21073148 -0.010338257 -0.006748659 -0.012912216 -0.29782546
-0.006215658 0.15565743 0.10208017 0.022871016 -0.080694385 -0.09894919 0.10280084 0.34178042
0.0025963788 0.041776475 -0.019280056 -0.049671244 -0.030061832 0.084496915 -0.036503643 -0.07419098
0.21297745 -0.07497026 -0.13979611 0.06846235 -0.0056572533 -0.0518797 0.31041497 -0.007268511
0.1925975 0.21430165 -0.106510736 -0.012780732 0.09010392 -0.13908026 0.13245468 -0.14606814

arith.constant6 f4 [128]
00000000: 496e 25bc b6b6 023c b979 74bd 5ddf 98ba
00000010: 4681 5bbd 8969 a6bd e13d 8fbd f1d8 dd3b
00000020: 175e 953c 51f7 2cbc 60b9 083d 7cd1 30bd
00000030: d054 563d ed53 613d 4161 32bd 0de2 47bd
00000040: 6d91 4dbc e1b5 09bd 8fa1 84bd 0bfa 34bd
00000050: a253 913c fd48 1c3d ea07 7bbd 9780 9bbc
00000060: e21d a9bd 9724 5ebd e5ad c5bd 300a a2bc
00000070: d93c 5a3c c914 d5bc 323e f83a 7ce6 a93d
00000080: 8b7a 05bd 07d8 29bd 0e85 cf3c cf21 57bd
00000090: c4fb cebc ac5a f03b 6fde 6ebd 7310 d0bc
000000a0: 7543 35bc 8f2c c43a 86ae 5d3c 0080 8cbd
000000b0: 25c6 4abc af64 903d adc7 e6bb 9b36 88bd
000000c0: 49f6 5cbc 5c4e 96bc 55aa 9d3d 5036 1c3d
000000d0: 1fc1 593d 6626 b4bc d2c1 b83d 4129 30bb
000000e0: 0025 f0bc b701 1b3c 70a9 743d f911 1ebd
000000f0: ca08 7f3d 803d 8f3d 7dff 183d 9702 69bd
00000100: 0f71 a53d 4247 a2ba e073 46bd 3bc1 1d3d
00000110: 6d6f 9c3c 9739 0a3d 594c 11bd a690 96bd
00000120: 02a3 d9bb 751a 18bd 331d a43c 5b26 543c
00000130: cb74 95bd 2243 b2bc 1cb6 aa3c 512a 8cbc
00000140: c3be 57bd 41cb a23a dc59 efbc 402e b0bb
00000150: e7f6 7cba c9fd e43b d3bb 1cbc bc79 46bd
00000160: 707d ad3d 0fbc 19bc bfe4 a53c 3b89 69bd
00000170: d12e 663c e45f 813d 2615 b1bd 102a d5bc
00000180: d050 e83c fb50 dd3c f8a9 1ebd 07fa 063e
00000190: bd56 873d df62 acbc 7b6a 93bd bd60 80bd
000001a0: 7ef9 cd3c c20b d3bd 2e2b adbc dab3 3fbd
000001b0: 3bc2 95bd 45f7 57bc c420 debc a3ee e7bc
000001c0: b40a 8d3c f5a4 593d ddea 203d c51c 853d
000001d0: 6605 f1bc cad7 4dbd 265e a3bc ded5 85bc
000001e0: c21b 73bd ac77 1a3c ca22 b13c 79b9 2fbd
000001f0: 75e9 0dbd 66ed 12bd 6ad5 6cbd dd88 85bc
-0.010097095 0.007978132 -0.059686396 -0.0011663247 -0.05359008 -0.08125598 -0.06994224 0.006770246
0.018233342 -0.010557012 0.033379912 -0.04316853 0.052326977 0.05501168 -0.04354978 -0.048799563
-0.012546879 -0.03362072 -0.06476127 -0.044183772 0.017740075 0.038155545 -0.061286844 -0.018982215
-0.08257653 -0.054234114 -0.096523084 -0.019780248 0.013320171 -0.026010888 0.0018939434 0.082959145
-0.03258757 -0.041465785 0.025332 -0.052522477 -0.025266536 0.0073350277 -0.058317598 -0.025398469
-0.011063446 0.0014966893 0.013530379 -0.068603516 -0.012376343 0.07050454 -0.007042846 -0.0665104
-0.013486453 -0.018347912 0.07698504 0.038137734 0.05316269 -0.021990966 0.09021343 -0.0026880058
-0.029314518 0.009460858 0.0597319 -0.03859136 0.06226424 0.06994152 0.037353028 -0.056887235
0.08078205 -0.0012380856 -0.04845035 0.038514357 0.0190961 0.03374633 -0.0354732 -0.07351808
-0.0066417465 -0.037134606 0.020033455 0.012948598 -0.07297667 -0.021760527 0.02083879 -0.017110022
-0.05267216 0.0012420194 -0.029217653 -0.005376607 -0.00096498284 0.0069882614 -0.009566265 -0.04845594
0.08471191 -0.009383216 0.020250676 -0.05701564 0.014049248 0.06317118 -0.08646612 -0.026021034
0.028358847 0.027016154 -0.038736314 0.13181315 0.06608341 -0.02104324 -0.07198044 -0.06268451
0.025143381 -0.10304977 -0.021138754 -0.04680238 -0.07312437 -0.013181512 -0.027115233 -0.028312033
0.017217018 0.05313583 0.039286483 0.06499628 -0.02942152 -0.05025462 -0.019942354 -0.016337331
-0.059352644 0.009427946 0.021623034 -0.04290149 -0.03464647 -0.035870932 -0.057820715 -0.016300613

arith.constant7 f4 [10]
00000000: 57de b43d 41cb 813d 2de4 8bbc 861b eebc
00000010: 3635 9ebc 89ae 8fbc f8f1 78be 4a9b 3ebd
00000020: ed8f 0f3e c4db 4c3d
0.088314705 0.06337596 -0.017076576 -0.029065859 -0.019312482 -0.01753928 -0.24311054 -0.046534814
0.14019747 0.050014272
